website/public/mnist.safetensors (safetensors, 353816 bytes, 18 tensors)

layers.0.weight f4 [32, 1, 5, 5]
0	0xbc008d47	-0.007846183
1	0xbd48a5c7	-0.048986223
2	0xbe5a7398	-0.21333158
3	0xbe1c2551	-0.1524861
4	0xbe249144	-0.1607104
5	0x3e0a1e34	0.13488084
6	0x3d04c1a5	0.032411236
7	0x3aec5f4d	0.0018033773
8	0x3d676454	0.056492165
9	0xbb1fb5c7	-0.0024369822
10	0x3ddc88f1	0.10768307
11	0xbe31b6ab	-0.17354839
12	0x3e0e368b	0.13887994
13	0xbe057215	-0.130318
14	0xbde119f7	-0.109912805
15	0x3de3d0a4	0.111237794
16	0xbe364fe4	-0.17803913
17	0xbe1166f4	-0.1419943
18	0x3ca1706f	0.019706933
19	0x3db3519f	0.08755802
20	0xbdf4739d	-0.11936114
21	0x3d1804e6	0.037114047
22	0x3e3a0816	0.18167147
23	0xbd6cab43	-0.057780515
24	0x3e459e0d	0.19298573
25	0xbe02f7fe	-0.12789914
26	0x3dafea7a	0.08589645
27	0x3d3593b4	0.044330314
28	0x3d815de1	0.06316734
29	0xbe532c1f	-0.206223
30	0x3e0a2880	0.13492012
31	0x3c244b13	0.010027665
32	0x3d584d1d	0.052807916
33	0xbca623a2	-0.020280663
34	0x3e347d5b	0.17625944
35	0x3bb7c0e6	0.005607712
36	0xbc873c42	-0.016508225
37	0xbd810850	-0.063004136
38	0x3e220ddd	0.15825601
39	0x3e4611e4	0.19342762
40	0xbe60c001	-0.21948244
41	0xbe59345f	-0.21211384
42	0xbdff84e3	-0.12476518
43	0x3e16a034	0.1470955
44	0x3e1fa68c	0.15590876
45	0x3e061a6c	0.13096017
46	0xbe2dbfc6	-0.16967687
47	0xbe05b9d7	-0.13059174
48	0xbc382993	-0.011240381
49	0x3db4a264	0.08820036
50	0x3e0cdc11	0.13755824
51	0x3e326dc4	0.17424685
52	0xbdbf7b87	-0.09349733
53	0xbdaa4c68	-0.083153546
54	0xbdf8c3b8	-0.121467054
55	0x3dda9b36	0.106741354
56	0x3bbab4fc	0.0056978446
57	0xbddb2a30	-0.10701406
58	0x3db31be9	0.08745558
59	0xbe1e8a35	-0.1548241
60	0xbdbdb480	-0.09262943
61	0x3c9d660b	0.019213697
62	0x3d03c194	0.032167032
63	0xbe6e613a	-0.23279276
64	0xbd766709	-0.060156856
65	0x3da185ee	0.07886873
66	0x3d8a976b	0.06767162
67	0xbe75829c	-0.23975605
68	0xbdc2c5a2	-0.09510352
69	0x3d2a2b4e	0.041545205
70	0xbe2b4344	-0.16724879
71	0xbe21aac7	-0.15787803
72	0xbd0288aa	-0.031868614
73	0xbe029080	-0.12750435
74	0x3e0866c9	0.1332046
75	0x3e45ce20	0.19316912
76	0x3d547379	0.051867936
77	0xbe42524f	-0.1897671
78	0xbe6f7765	-0.23385389
79	0xbe48de49	-0.19616045
80	0x3e0697f2	0.131439
81	0x3de71b80	0.11284542
82	0x3db9c5c9	0.09070928
83	0xbe0511f0	-0.12995124
84	0xbe3f7dec	-0.18700379
85	0xbda67847	-0.0812841
86	0xbdc22706	-0.094800994
87	0x3e514eee	0.20440266
88	0x3c497c11	0.012297646
89	0xbd9d184b	-0.07670649
90	0xbcb97ca4	-0.022642441
91	0x3d7aeb6f	0.061259683
92	0xbca455c6	-0.020060431
93	0xbdf430c5	-0.119233645
94	0xbd037666	-0.032095335
95	0xbc973294	-0.018456735
96	0x3dd5f888	0.10447794
97	0x3e45bfc6	0.19311437
98	0x3e0b080d	0.1357729
99	0xbdcad5c9	-0.099040575
100	0x3e516f97	0.20452724
101	0xbdfc7195	-0.123263516
102	0xbda1e106	-0.07904248
103	0xbe4f2581	-0.2022915
104	0x3d0c62c2	0.03427387
105	0x3c88930f	0.016671686
106	0x3dbad496	0.09122579
107	0xbe832c03	-0.25619516
108	0x3e1d0f1f	0.153378
109	0xbd905478	-0.07047361
110	0xbcd992d0	-0.026559263
111	0xbde79a1d	-0.11308692
112	0xbe80238e	-0.25027126
113	0xbdd399f2	-0.10332097
114	0xbd86a84b	-0.06575068
115	0x3e403ff7	0.187744
116	0xbdec3b78	-0.1153478
117	0x3d30807f	0.043091293
118	0xbdc93339	-0.09824223
119	0x3e07ff95	0.1328109
120	0xbdc45660	-0.09586787
121	0xbd9de074	-0.07708827
122	0xbe095498	-0.13411176
123	0xbd8bf998	-0.068347156
124	0xbe476995	-0.1947387
125	0x3dc91b81	0.09819699
126	0x3d6a4a8a	0.057199992
127	0x3e01026f	0.12598585
128	0x3dbea5ce	0.093089685
129	0xbcf2b79f	-0.029628573
130	0x3df4aaae	0.11946617
131	0x3d9e6ae1	0.07735229
132	0xbd40823e	-0.04699921
133	0x3d1d3874	0.038383916
134	0x3ce5fd3b	0.028074851
135	0x3dff48a9	0.12465031
136	0x3d240867	0.040047076
137	0xbc77ec3c	-0.015132006
138	0xbdb7685c	-0.08955452
139	0xbe1fb754	-0.15597278
140	0xbe5931d8	-0.2121042
141	0xbcc4eb58	-0.024038002
142	0x3de465a9	0.11152203
143	0x3dedb56b	0.11606868
144	0x3e24f238	0.16108024
145	0xbc4b3eaf	-0.012405082
146	0xbdf6518b	-0.12027272
147	0xbe2399ff	-0.15976714
148	0xbd83578b	-0.06413182
149	0x3c8a8f8d	0.016914153
150	0x3cdbbe60	0.026824176
151	0xbdbff84c	-0.09373531
152	0xbd48e618	-0.04904756
153	0x3e70b6d7	0.23507248
154	0xbd23c4cf	-0.039982613
155	0xbd4815c8	-0.048848897
156	0x3ba9c474	0.0051808897
157	0xbdf1d63d	-0.11808441
158	0xbdd025d7	-0.101634674
159	0xbdc1f38c	-0.09470281
160	0xbcf00e7d	-0.029303784
161	0xbdd26c46	-0.10274558
162	0xbc8f7f47	-0.017516745
163	0x3e4c2aed	0.1993825
164	0xbd111339	-0.035418723
165	0xbe33e6b0	-0.17568469
166	0xbde46c33	-0.1115345
167	0x3dd24b76	0.10268299
168	0xbdc5ad10	-0.0965215
169	0x3e11d86d	0.14242716
170	0x3e280acb	0.16410367
171	0xbd41983a	-0.047264315
172	0xbd812db8	-0.06307548
173	0xbe0e2296	-0.13880381
174	0xbe2126d3	-0.15737467
175	0xbe389d8a	-0.18028846
176	0xbc1051db	-0.008808578
177	0x3d25780a	0.04039768
178	0xbd964e92	-0.07339205
179	0x3e2f36a5	0.17110689
180	0x3dcad696	0.0990421
181	0x3e351c02	0.17686465
182	0x3d0b40cf	0.033997353
183	0x3d3d9efc	0.046294197
184	0xbe4b3069	-0.19842686
185	0xbe54ce55	-0.20781834
186	0x3c873ceb	0.01650854
187	0x3e42d44c	0.19026297
188	0x3dd14272	0.102177516
189	0xbe39d2bf	-0.181468
190	0x3e188ec7	0.14898215
191	0xbe641eb8	-0.22277343
192	0x3d28e0e9	0.041230116
193	0xbe36a7da	-0.17837468
194	0xbd6f543e	-0.05842995
195	0x3e1c3759	0.15255488
196	0xbe544eb5	-0.2073315
197	0x3cd15118	0.025551364
198	0x3e1418d8	0.14462602
199	0x3d38d9c1	0.04512954
200	0xbe0fe5f0	-0.14052558
201	0xbdc79b27	-0.0974639
202	0xbd082f3d	-0.033248175
203	0x3d9a33ce	0.07529412
204	0xbe2ef1f8	-0.17084491
205	0xbd3220aa	-0.043488182
206	0xbc949c9d	-0.018141085
207	0xbdff72d6	-0.12473075
208	0x3e540efc	0.20708841
209	0x3e4448a1	0.1916833
210	0xbd35337f	-0.044238564
211	0x3e034604	0.12819678
212	0x3b8e3214	0.004339466
213	0xbd947270	-0.0724839
214	0x3d945109	0.07242019
215	0x3d3acee9	0.04560748
216	0xbd811813	-0.0630342
217	0x3e2c06f4	0.16799527
218	0x3b93515f	0.004495784
219	0xbe2cd1bf	-0.16876887
220	0xbc89d8f7	-0.01682709
221	0x3db0d195	0.086337246
222	0xbe52ae77	-0.20574366
223	0x3e22b2cb	0.15888517
224	0xbe310839	-0.17288293
225	0xbcced2c2	-0.025246982
226	0xbdfc64e6	-0.12323932
227	0xbbb784a0	-0.005600527
228	0xbd4db3fd	-0.05022048
229	0x3e273221	0.16327716
230	0xbd3cef00	-0.046126366
231	0x3ce235fa	0.027613629
232	0x3e03234e	0.12806436
233	0x3d9b9930	0.075975776
234	0xbd42e96b	-0.047585886
235	0x3e59f4ef	0.21284841
236	0xbe1cd3eb	-0.15315215
237	0x3e24ae71	0.16082169
238	0x3e3df874	0.18551809
239	0xbde03ae6	-0.10948734
240	0xbd9d062f	-0.07667195
241	0x3dbb546e	0.09146963
242	0xbcb65d51	-0.022261294
243	0xbdce7b39	-0.100820966
244	0xbe31b8a6	-0.17355594
245	0xbb856a7f	-0.004071533
246	0xbe25b0cc	-0.16180724
247	0xbe25f8b9	-0.16208161
248	0x3c681ba7	0.014166749
249	0x3e328711	0.17434336
250	0xbcc92c5b	-0.024557283
251	0x3e4ad9d7	0.19809662
252	0x3d6d624e	0.05795508
253	0x3d9b1d36	0.07573931
254	0xbe02acd4	-0.12761241
255	0x3e41e90d	0.18936558

layers.0.bias f4 [32]
0	0xbdc02576	-0.09382145
1	0x3e4abf47	0.19799529
2	0x3d574e9c	0.052565202
3	0xbe4250b7	-0.18976103
4	0xbc48d81f	-0.0122585585
5	0xbe544887	-0.20730792
6	0x3c873562	0.016504947
7	0x3da8ee3f	0.08248567
8	0x3e49a838	0.19693077
9	0x3e2bcd6d	0.16777582
10	0x3d3abfdd	0.04559313
11	0xba4824a6	-0.00076348556
12	0xbdbcc5e6	-0.09217434
13	0x3ce6532d	0.028115833
14	0xbe05e2e5	-0.13074835
15	0x3dbbfd56	0.09179179
16	0xbd18c96b	-0.037301462
17	0x3e35238a	0.17689338
18	0xbd713d36	-0.058896266
19	0x3ddaf751	0.10691703
20	0x3c168779	0.009187573
21	0x3db7a9dc	0.08967945
22	0x3e45a100	0.19299698
23	0xbd65adb6	-0.056073867
24	0xbda9b9d3	-0.08287396
25	0xbd885125	-0.06656102
26	0xbcab6931	-0.020924183
27	0x3becf0bc	0.007230846
28	0x3e218fdf	0.15777539
29	0xbc4ef085	-0.0126305865
30	0xbe4450d4	-0.19171458
31	0xbe32943e	-0.17439362

layers.2.weight f4 [32, 32, 5, 5]
0	0xbd444a76	-0.047922574
1	0xbd4cd27e	-0.05000543
2	0x3c9e0d43	0.019293433
3	0x3d2a7c01	0.041622166
4	0x3cc44058	0.023956463
5	0x3d2664e8	0.040623575
6	0x3ce11a3a	0.027478326
7	0x3d317466	0.043323897
8	0x3d81435b	0.06311675
9	0x3c4db0d3	0.012554365
10	0x3d360fa9	0.04444853
11	0x3d6b5128	0.057450444
12	0x3d2e4eb3	0.042555522
13	0x3c8c6da2	0.01714212
14	0x3cb546af	0.022128431
15	0xbbb7f739	-0.005614188
16	0x3c389db1	0.011268065
17	0xbc61a22e	-0.013771577
18	0x3c943ef0	0.018096417
19	0x3d127b5c	0.035762176
20	0x3d663742	0.05620504
21	0x3d265ce3	0.040615927
22	0x3d21a6d2	0.039465733
23	0x3d21546d	0.039387155
24	0x3c932446	0.017961632
25	0xbd2675f9	-0.04063985
26	0xbc846244	-0.016160138
27	0xbcd663b5	-0.02617059
28	0xbc100df6	-0.008792391
29	0x3c875db6	0.016524177
30	0xbda88e18	-0.08230227
31	0xbcc92286	-0.024552595
32	0xbd7668a1	-0.060158376
33	0xbd119f20	-0.035552144
34	0xbcbbfa03	-0.022946363
35	0xbd935998	-0.07194823
36	0xbcc15ee3	-0.023604816
37	0x3a0b1f53	0.0005307097
38	0x3cf1b76b	0.029506406
39	0x3bcebf57	0.0063094306
40	0xbca73be3	-0.020414298
41	0x39646378	0.0002178083
42	0x3cf119b0	0.029431194
43	0xbc289973	-0.010290491
44	0x3cb4fb73	0.022092557
45	0x3d06aee3	0.03288163
46	0x3c45e691	0.012078897
47	0x3c1010a7	0.008793033
48	0x3c26e865	0.010187243
49	0xbc7ff1c1	-0.0156216035
50	0x3d2c9f33	0.04214401
51	0x3d3a8a51	0.045542065
52	0x3d917ca1	0.07103849
53	0x3d51f555	0.051259357
54	0x3c81ba3f	0.01583588
55	0x3d2153ed	0.03938668
56	0x3c893e8e	0.016753461
57	0x36bebe0e	5.6845665e-06
58	0x3ccbd591	0.02488211
59	0x3b02ea1a	0.0019975961
60	0x3d5bb692	0.05364091
61	0xb9ab6544	-0.0003269111
62	0x3c6b18a4	0.0143491365
63	0xbba310a5	-0.0049763494
64	0x3dc6f82b	0.09715303
65	0x39ca23a4	0.00038554997
66	0x3cf3562e	0.02970418
67	0x3d1988fe	0.03748416
68	0x3d63fa69	0.05565873
69	0x3d5ce981	0.053933624
70	0xbd3bb767	-0.045829203
71	0xbc09cc4d	-0.0084105255
72	0x3cc046c2	0.02347124
73	0xbc9df028	-0.019279554
74	0x3d195b14	0.037440374
75	0x3d68036a	0.05664388
76	0xbc433f47	-0.011916942
77	0xbcd9b108	-0.026573673
78	0x3ce0697f	0.027394054
79	0x3c2d960f	0.010594859
80	0x3c9f7b84	0.019468077
81	0xbd13127d	-0.035906304
82	0x3c9e08b1	0.019291254
83	0x3b92710a	0.0044690417
84	0x3b8507e8	0.0040597804
85	0x3c1cf7d2	0.009580569
86	0xbb18bbb6	-0.0023305244
87	0x3c00ba87	0.007856972
88	0x3c3c54c4	0.011494819
89	0xbd5fa911	-0.054604594
90	0xbd49a6e8	-0.04923144
91	0xbd19ce2a	-0.03755013
92	0xbcdc9994	-0.0269287
93	0xbce3fccf	-0.02783051
94	0xbd8ac8a6	-0.06776552
95	0xbcce68b7	-0.025196416
96	0xbb1eeaec	-0.002424891
97	0xbd065d08	-0.032803565
98	0xbca4235b	-0.02003639
99	0xbd612a14	-0.05497177
100	0x3d376ba8	0.044780403
101	0x3d6e259c	0.058141336
102	0x3d2ed7b4	0.04268618
103	0x3cba2981	0.022724869
104	0x3c1c38f2	0.009535061
105	0x3cecfe32	0.028929804
106	0xbcd165aa	-0.025561173
107	0x3cd1e80d	0.025623346
108	0x3c5891c0	0.013218343
109	0x3cf630fd	0.030052656
110	0x3d39c796	0.045356356
111	0xbc4e8925	-0.01260594
112	0x3d14ce01	0.036329273
113	0x3b48f12f	0.0030661335
114	0xbaf6f48c	-0.0018841191
115	0xbd40c10f	-0.047059115
116	0xbcde0243	-0.027100688
117	0x3c5889a0	0.013216406
118	0xbccba2c3	-0.024857884
119	0x3d43f247	0.047838476
120	0xbc246b80	-0.010035396
121	0x39b611ec	0.00034727098
122	0xbd19a8e1	-0.03751457
123	0xbc882f41	-0.016624095
124	0xbbed0991	-0.0072338064
125	0xbca27f34	-0.019836046
126	0x3bbea7e5	0.0058183544
127	0xbc4ab73d	-0.012372789
128	0xbd078895	-0.03308924
129	0x3cac4e9b	0.021033576
130	0xbc0be4a6	-0.008538401
131	0xbcc399b3	-0.023877
132	0x3c88455c	0.016634636
133	0x3d119b40	0.03554845
134	0xbd106602	-0.035253532
135	0xbb7a4353	-0.00381871
136	0xbc4b0d02	-0.012393238
137	0x3c665c22	0.014060052
138	0xbca72f1a	-0.020408202
139	0xbd822c09	-0.06356055
140	0xbc9e8eed	-0.019355262
141	0xbd3daeef	-0.046309408
142	0x3c39e26d	0.011345488
143	0xbd6695f8	-0.056295365
144	0xbd746adf	-0.059672233
145	0xbd31d185	-0.043412704
146	0xbd17aa7d	-0.037027825
147	0x3cdcf40c	0.02697184
148	0xbc079b05	-0.008276706
149	0x3c8f91bd	0.017525548
150	0x3cfe56cc	0.031047247
151	0xbccc2f1d	-0.02492481
152	0x3b5f5c08	0.0034081955
153	0xbc195f21	-0.009361059
154	0xbd424d1f	-0.04743683
155	0x3b8ee03a	0.004360226
156	0x3c6fb4f2	0.014630543
157	0xbbc0e651	-0.005886831
158	0x3c2c444a	0.010514328
159	0x3c139ff5	0.009010305
160	0x3d14d964	0.036340132
161	0x3d0172b3	0.031603526
162	0xbc3e2fd9	-0.011608087
163	0x3cec921b	0.028878262
164	0x3d115f60	0.035491347
165	0x3bcc6eb9	0.006238785
166	0x3ccf0bef	0.025274245
167	0x3cc9f7c2	0.024654273
168	0x3c8ccb4d	0.017186785
169	0x3b3cf345	0.0028831523
170	0xbd5d253f	-0.0539906
171	0xbd2b3c42	-0.041805513
172	0xbd1340eb	-0.035950582
173	0x3d6ce97d	0.05783986
174	0x3d7a53d4	0.0611151
175	0xbce7875a	-0.028262783
176	0x3d1d8122	0.03845323
177	0x3c3b5162	0.011432977
178	0xbb96896e	-0.0045940196
179	0xbcf78f6b	-0.030219754
180	0x3cca59c6	0.02470101
181	0x3d36508e	0.044510417
182	0xbbd1a596	-0.006397913
183	0xbd27d394	-0.04097326
184	0xbd369b95	-0.04458197
185	0xba173481	-0.00057680166
186	0xbc8ddf2c	-0.01731833
187	0xbcfd79d0	-0.030941874
188	0xbd8191fd	-0.06326673
189	0xbc8b18cb	-0.016979596
190	0xbd047fae	-0.032348327
191	0xbcbde423	-0.023180073
192	0xbcb62351	-0.022233637
193	0xbcdf2644	-0.027239926
194	0xbce55b3e	-0.02799761
195	0xbccb1dba	-0.024794448
196	0x3c21e3a6	0.009880936
197	0xbcd61518	-0.026133105
198	0xbc7b3359	-0.015332066
199	0x3d21213b	0.03933833
200	0xbb3fd9f4	-0.0029274197
201	0x3c2d145a	0.010563934
202	0xbd3b0d8b	-0.045667212
203	0xbc337ae8	-0.010954596
204	0xbbf3cfb4	-0.0074405316
205	0xbd344b69	-0.04401723
206	0xbd854c3f	-0.065086834
207	0xbd1beff5	-0.038070638
208	0x3c0b2ede	0.008495061
209	0x3d0481e5	0.03235044
210	0xb9f95aa8	-0.00047560525
211	0xbd383774	-0.04497476
212	0xbb496178	-0.0030728262
213	0xbbccf220	-0.0062544495
214	0x3a6274be	0.0008638612
215	0xbcfffee3	-0.03124947
216	0x3c998fb2	0.018745277
217	0x3b9581e9	0.0045626056
218	0x3cc75ca5	0.024336169
219	0x3d0756ae	0.03304165
220	0xbcccea7a	-0.02501415
221	0x3d131e81	0.035917763
222	0xbc085747	-0.00832159
223	0x3c235ccb	0.009970854
224	0xbc955473	-0.018228745
225	0x3d10d162	0.035355933
226	0x3cfccd8f	0.030859737
227	0x3cd3ffc3	0.025878793
228	0xbbccfdba	-0.0062558325
229	0x3cecb084	0.028892763
230	0x3c73e6e3	0.014886591
231	0x3da578fc	0.080797166
232	0x3d6dff97	0.058105078
233	0xbd0964e3	-0.03354348
234	0xbc5d7077	-0.013515583
235	0x3d0bd928	0.034142643
236	0xbc65313a	-0.013988787
237	0xbbbbf488	-0.0057359375
238	0xbb30d79a	-0.0026983977
239	0xbcd953d8	-0.026529238
240	0xbcba2318	-0.022721812
241	0xb9c104a4	-0.00036815286
242	0x3cce5098	0.025184914
243	0xbc6523c0	-0.013985574
244	0xbcacbdd0	-0.021086603
245	0xbd6b5f34	-0.05746384
246	0xbc81ddbc	-0.015852802
247	0x3ce5a168	0.028031066
248	0xbcd670b3	-0.026176786
249	0x3c00e28e	0.007866515
250	0x3c087649	0.008328983
251	0x3d3ea3a6	0.046542786
252	0x3d13422c	0.03595178
253	0x3d1f0b66	0.03882923
254	0xbc9813fa	-0.018564213
255	0x3cd3376a	0.02578326

layers.2.bias f4 [32]
0	0x3bfcc704	0.007714154
1	0x3ce440fc	0.027863018
2	0x3c7b011e	0.015320091
3	0xbbd6a637	-0.006550576
4	0xbc708a35	-0.014681389
5	0x3d63b959	0.055596683
6	0x3bbf2aee	0.005833975
7	0x3b831cd3	0.004001239
8	0x3c8d0533	0.017214393
9	0xbcbb4f52	-0.022864971
10	0x3cc2a11f	0.02375847
11	0x3d225ed6	0.039641224
12	0xbbd421e7	-0.006473768
13	0xbd2ad469	-0.041706476
14	0xbcc7cb5f	-0.024388967
15	0xb9ba7e3e	-0.00035570742
16	0xbb89f9d0	-0.004210688
17	0xbc8f5a87	-0.017499221
18	0xbc2aebe3	-0.010432216
19	0x3b83fcb7	0.0040279287
20	0x3c2438ae	0.010023279
21	0xbc711557	-0.0147145605
22	0x3cd14ad6	0.02554838
23	0x3cf143fc	0.029451363
24	0x3d07d5a6	0.033162735
25	0x3d7448e4	0.059639826
26	0xbb80d245	-0.003931316
27	0x3d04f0c2	0.032456167
28	0x3d16c6b0	0.036810577
29	0x3b4972f3	0.003073868
30	0xb9da03e5	-0.00041583102
31	0xbc2a5153	-0.010395366

layers.4.weight f4 [32]
0	0x3f8b50ef	1.0884074
1	0x3f863f20	1.0488014
2	0x3f8b92cf	1.0904177
3	0x3f85250c	1.0401931
4	0x3f89955f	1.074871
5	0x3f881b3f	1.0633315
6	0x3f870a68	1.0550051
7	0x3f83d6fb	1.0299982
8	0x3f86feb3	1.0546478
9	0x3f842dbc	1.0326457
10	0x3f884359	1.0645553
11	0x3f899f5c	1.0751758
12	0x3f86d887	1.0534829
13	0x3f8788f6	1.0588672
14	0x3f8762d1	1.0577031
15	0x3f873f9e	1.056629
16	0x3f86afea	1.0522435
17	0x3f856e9e	1.0424383
18	0x3f86ad0b	1.0521559
19	0x3f85bf66	1.0449035
20	0x3f8606e6	1.0470855
21	0x3f882254	1.0635476
22	0x3f8be5aa	1.0929463
23	0x3f856e33	1.0424255
24	0x3f84b6a9	1.0368243
25	0x3f870d8d	1.055101
26	0x3f87597e	1.0574186
27	0x3f870468	1.054822
28	0x3f8592ed	1.0435463
29	0x3f8a3845	1.0798422
30	0x3f859250	1.0435276
31	0x3f83c7d2	1.0295355

layers.4.bias f4 [32]
0	0xbc8c911a	-0.017159034
1	0xbcefd1b2	-0.029274795
2	0xbd0e3b72	-0.03472466
3	0xbd3941e0	-0.04522884
4	0xbcc35e93	-0.023848807
5	0x3a16a13f	0.00057460734
6	0xbccb7f29	-0.024840908
7	0xbc655cb2	-0.013999151
8	0xbc45a55d	-0.012063351
9	0xbcca8c51	-0.024725111
10	0xbb63188d	-0.0034652085
11	0xbbb86a46	-0.005627903
12	0x3cb7a839	0.022419082
13	0xbcc2c574	-0.023775794
14	0xbcd37b84	-0.025815733
15	0xbcb07b7e	-0.02154326
16	0xbcdd50f4	-0.02701614
17	0x3be9fff8	0.0071411096
18	0xbcb28686	-0.021792661
19	0xbd3297ca	-0.04360179
20	0xbcd41b3b	-0.02589189
21	0xb8d07b7e	-9.941215e-05
22	0xbc11d357	-0.008900485
23	0xbbe5026a	-0.006988813
24	0xbd5f9ee7	-0.0545949
25	0x3bada96b	0.005299737
26	0xbd64b102	-0.05583287
27	0x3b660c28	0.003510246
28	0xbd171ac7	-0.03689077
29	0x3c534592	0.012895005
30	0x3cb01b8a	0.021497507
31	0xbd0b2401	-0.033969883

layers.4.running_mean f4 [32]
0	0x419bf8aa	19.496418
1	0x4146acc9	12.417184
2	0x40c7e999	6.2472653
3	0x418c8047	17.562635
4	0x41962974	18.77024
5	0x41238cde	10.221891
6	0x41aa3d42	21.279911
7	0x41229965	10.16245
8	0x40371f29	2.8612769
9	0x4109ca89	8.611947
10	0x41a8e942	21.113895
11	0x4048ac8c	3.1355314
12	0x41e2d603	28.354498
13	0x4197f3dd	18.994074
14	0x4111cb0d	9.112073
15	0x419584c7	18.689833
16	0x411d8d9c	9.847073
17	0x41ba06d6	23.253338
18	0x41e5828f	28.68875
19	0x416fc938	14.986626
20	0x41b8fa8a	23.122334
21	0x416c249b	14.758937
22	0x40a94db4	5.2907352
23	0x41279a39	10.475152
24	0x41bee0f9	23.85985
25	0x41d5ba44	26.71595
26	0x41aaba2e	21.340908
27	0x414d1818	12.818382
28	0x41e2eb62	28.364933
29	0x41a86513	21.049353
30	0x40524f7c	3.2861013
31	0x41a6629b	20.798147

layers.4.running_var f4 [32]
0	0x44933009	1177.5011
1	0x442e4319	697.0484
2	0x43bfa0bf	383.25583
3	0x449011ad	1152.5524
4	0x44d8563c	1730.6948
5	0x43eaea70	469.83154
6	0x44a93dce	1353.9314
7	0x44523bb0	840.9326
8	0x43133ee9	147.24574
9	0x43da8f9a	437.1219
10	0x44f17528	1931.6611
11	0x42ff6117	127.68963
12	0x45042fd1	2114.9885
13	0x4503fd94	2111.8486
14	0x4445e4e4	791.5764
15	0x44c1ae4d	1549.4469
16	0x43b42d98	360.3562
17	0x44bcdfc5	1510.9928
18	0x44ce1d8a	1648.9231
19	0x447199b4	966.4016
20	0x44bf73b7	1531.6161
21	0x441f831d	638.04865
22	0x438c2c94	280.34827
23	0x4441863a	774.0973
24	0x44b72b74	1465.3579
25	0x44f6752f	1971.662
26	0x44e56ea1	1835.4572
27	0x446f004e	956.00476
28	0x4525ed7d	2654.843
29	0x453fbbef	3067.7458
30	0x430df6d6	141.9642
31	0x4503b393	2107.2234

layers.6.weight f4 [64, 32, 3, 3]
0	0xbd8feb32	-0.07027282
1	0xbd3af429	-0.045643006
2	0x3d480ddc	0.048841342
3	0xbd4196f8	-0.047263116
4	0xbc8df689	-0.017329471
5	0x3cb5b61e	0.022181567
6	0xbd20b0dd	-0.03923117
7	0xbd0d329e	-0.0344721
8	0x3da92957	0.08259838
9	0xbd84ee9b	-0.06490823
10	0xbc96d331	-0.01841125
11	0xbc9dc08f	-0.019256858
12	0x3c19ee6b	0.009395222
13	0x3d637428	0.055530697
14	0x3d54f404	0.051990524
15	0x3c1d25ef	0.009591564
16	0x3d0d787e	0.03453874
17	0x3cf78ad0	0.030217558
18	0x3d267954	0.04064305
19	0x3d08d52d	0.033406425
20	0xbcdd6bad	-0.027028883
21	0xbc9a1fac	-0.01881393
22	0xbca1bf67	-0.019744588
23	0xbd395323	-0.0452453
24	0xbaaebc39	-0.0013331241
25	0x3af7ccc0	0.0018905625
26	0xbde2de3f	-0.11077546
27	0xbd19edbf	-0.037580248
28	0xbd066a5f	-0.032816287
29	0xbd475379	-0.04866359
30	0xbccaefae	-0.024772491
31	0xbd931315	-0.07181374
32	0x3d287b5e	0.041133277
33	0xbd95f115	-0.073213734
34	0xbb1dafd4	-0.00240611
35	0xbd5aba50	-0.053400338
36	0x3d11c4ba	0.035588004
37	0xbb4f8633	-0.0031665682
38	0x3cf167ab	0.029468378
39	0x3d867740	0.06565714
40	0xbcb6fddc	-0.022337846
41	0x3d9e7843	0.07737782
42	0xba4cc15a	-0.0007810794
43	0x3aa85b51	0.0012844597
44	0x3da828ef	0.082109325
45	0x3d4933b6	0.04912158
46	0x3c365f8a	0.011131177
47	0x3b9998ca	0.0046874033
48	0xbd6382a8	-0.055544525
49	0xbd777105	-0.06041052
50	0xbc9157b5	-0.017742017
51	0xbd5ed186	-0.054399036
52	0x3c92a36f	0.017900197
53	0x3d52ab94	0.05143316
54	0x3cb99f05	0.022658834
55	0x3c6ae84a	0.014337609
56	0x3cbf4c48	0.023351803
57	0x3a5c4da3	0.0008403903
58	0xbcd7e38f	-0.026353626
59	0x3d0c960e	0.03432279
60	0x3c59508f	0.013263836
61	0x3da369d4	0.079791695
62	0xbb0104eb	-0.001968677
63	0xbd62f1ef	-0.055406507
64	0xbd4dbcd2	-0.0502289
65	0x3d2b793b	0.04186366
66	0x3c36eb0f	0.011164441
67	0x3bc9bb22	0.006156341
68	0xbce5b941	-0.028042438
69	0x3ced7358	0.028985664
70	0xbcea6b0f	-0.028615503
71	0xbcd90d01	-0.026495459
72	0xbc43aaa0	-0.011942536
73	0xbd20c892	-0.03925378
74	0xbd928e3b	-0.071560346
75	0xbd259577	-0.040425744
76	0xbd6405a2	-0.055669434
77	0xbd6b371b	-0.0574256
78	0x3b88002b	0.0041504106
79	0x3c8a1e3f	0.016860126
80	0x3d787b87	0.06066468
81	0x3cc476da	0.023982454
82	0x3cadc489	0.02121188
83	0x3a0ba520	0.0005327035
84	0x3d1d9043	0.038467657
85	0xbd2a2f25	-0.041548867
86	0x3d3ee8d2	0.046608754
87	0xbca7a9bf	-0.020466683
88	0x3d0f116e	0.03492873
89	0xbd0b0857	-0.0339435
90	0x3d470a7d	0.048593987
91	0x3c62fc58	0.013854109
92	0x3c865904	0.016399868
93	0xbcca34cb	-0.024683377
94	0x3d0ef27c	0.03489922
95	0x3d43db2f	0.04781645
96	0xbccbe838	-0.024891004
97	0xbb9f5004	-0.0048618335
98	0x3cf404dd	0.029787475
99	0x3cd64393	0.026155269
100	0x3d5e35c4	0.054250494
101	0x3d46faad	0.048578907
102	0x3d64cf43	0.055861723
103	0xbcf2e67b	-0.029650917
104	0xbcdbf693	-0.026850974
105	0xbbaebbec	-0.0053324606
106	0xbd331643	-0.043722402
107	0xbd3bc3c1	-0.045840982
108	0x3c9a4889	0.018833416
109	0x3ca00463	0.019533342
110	0x3d6859b9	0.05672619
111	0xbc93423d	-0.01797592
112	0x3d0be022	0.034149297
113	0xbd4af65f	-0.049551364
114	0x3c440ee5	0.011966442
115	0xbd2e1215	-0.042497713
116	0x3c031f1e	0.008003024
117	0xbd3f1b70	-0.046657026
118	0xbca89b18	-0.020581767
119	0xbdb0839d	-0.08618853
120	0xbd86d28f	-0.065831296
121	0xbd31f0e0	-0.043442607
122	0x3d1d4c73	0.038402986
123	0x3cc5a125	0.024124691
124	0x3cc0cea8	0.023536041
125	0x3daceef8	0.08444017
126	0x3d45525c	0.048174247
127	0xbd7af5d9	-0.061269615
128	0xbd41b847	-0.04729488
129	0xbc621b24	-0.013800416
130	0x3d52b102	0.05143834
131	0xbd554d1d	-0.052075494
132	0x3c053bd0	0.008131936
133	0x3d8766cf	0.06611406
134	0xbc918808	-0.01776506
135	0x3baed75b	0.005335731
136	0xbb601d19	-0.003419703
137	0xbd4a59c3	-0.04940201
138	0x3d511f56	0.051055275
139	0xbd17610e	-0.036957793
140	0xbd9f5dd0	-0.07781565
141	0xbca1a7cc	-0.019733332
142	0xbb425131	-0.0029650445
143	0xbd11ff22	-0.035643704
144	0x39fa03b6	0.0004768648
145	0xbbc610dd	-0.0060444907
146	0xbcdf32ec	-0.027245961
147	0x3d43fa50	0.04784614
148	0x3cf10eb5	0.029425958
149	0xbc9e6cc8	-0.01933898
150	0x3d03efdd	0.032211173
151	0xbd34321f	-0.04399311
152	0xbd5107aa	-0.0510327
153	0x3db0d9cf	0.08635294
154	0x3d84df2c	0.06487879
155	0xbc992ae6	-0.018697213
156	0x3d8b7319	0.068090625
157	0x3c149f56	0.009071192
158	0xbd5ec0bb	-0.05438302
159	0xbc32fc6e	-0.010924442
160	0x3d236404	0.039890304
161	0xbcd7d17b	-0.026345005
162	0xbc933d0e	-0.01797345
163	0xbd52aff3	-0.05143733
164	0xbd6f23ec	-0.058383867
165	0x3aeaa42e	0.0017901713
166	0x3cd93a0a	0.026516933
167	0x3d0771ea	0.03306762
168	0x3cbe4f39	0.023231136
169	0x3d102bb7	0.03519794
170	0x3d3b50a2	0.045731194
171	0x3ca28dee	0.019843068
172	0xbc2b79a1	-0.01046601
173	0xbd4fa146	-0.05069091
174	0xbc72b318	-0.014813207
175	0xbc470df5	-0.012149324
176	0x3d6593ff	0.056049343
177	0xbcd7ef89	-0.026359336
178	0xbd9677c4	-0.07347062
179	0x3c04fd1f	0.008116989
180	0xbd8bc6ad	-0.06825004
181	0x3b5b5380	0.0033466518
182	0xbd3de390	-0.0463596
183	0x3c2bb5f5	0.010480394
184	0x3b7e12b5	0.0038768474
185	0x3d66b214	0.056322172
186	0xbc1edac4	-0.0096957125
187	0xbd936e34	-0.07198754
188	0x3c321706	0.010869747
189	0x3c9c16c3	0.019053822
190	0x3d503b7e	0.050837986
191	0x3d0d8236	0.034548007
192	0x3c067c2c	0.008208316
193	0x3d33eb6e	0.043925695
194	0xbb29695f	-0.002585016
195	0x3d7d6445	0.061863203
196	0x3d61afef	0.055099424
197	0x3c27da79	0.010244959
198	0x3a852f01	0.0010161103
199	0xbd73774c	-0.059439942
200	0xbd640f7e	-0.055678837
201	0x3a7e365b	0.00096974307
202	0xbd7f2b72	-0.062297292
203	0xbd35d436	-0.044391833
204	0x3d0d9f9b	0.03457604
205	0xbd65db80	-0.056117535
206	0xbd077c2c	-0.033077404
207	0x3cd36365	0.025804231
208	0xbc75502d	-0.014972729
209	0x3d75c2c3	0.060000192
210	0x3d5ad011	0.053421084
211	0xbc4a8bb2	-0.0123624075
212	0x3d2beb6c	0.041972563
213	0x3cd80aad	0.026372278
214	0x3d4cacca	0.049969472
215	0xbd21602a	-0.03939835
216	0xbc19f9f7	-0.009397975
217	0xbcc74ada	-0.024327684
218	0x3d593672	0.05303044
219	0xbc9e6183	-0.019333607
220	0x3d1a2048	0.037628442
221	0x3d36f2b9	0.044665072
222	0xbd342c61	-0.043987636
223	0xbd8f2ea6	-0.06991319
224	0x39c4a034	0.00037503394
225	0x3d027035	0.03184529
226	0xbcb4ccb3	-0.022070264
227	0xbcc62a6c	-0.02419015
228	0x3c1fb541	0.009747804
229	0xbd2c2073	-0.042023133
230	0xbd62419c	-0.05523835
231	0x3cef53d4	0.029214777
232	0x3d665335	0.056231696
233	0x3bef528e	0.0073035425
234	0xbd11aa50	-0.035562813
235	0xbcdc5170	-0.026894301
236	0x3c949403	0.018136984
237	0x3bca0ddc	0.006166203
238	0xbc693c47	-0.014235563
239	0x3d8fbaa1	0.070180185
240	0xbd030f25	-0.031996865
241	0x3cbcb732	0.023036573
242	0x3cdf1e0e	0.02723601
243	0x3c20e347	0.009819812
244	0x3d02f4a7	0.0319716
245	0x3c84083a	0.016117204
246	0x3d7457c7	0.059654023
247	0xbcfea4a9	-0.031084375
248	0x3d0390ae	0.0321204
249	0x3cd6c725	0.026218006
250	0x3d5af111	0.053452555
251	0xbd2bd2dd	-0.04194914
252	0xbc03e4d2	-0.0080501605
253	0xbd132981	-0.035928253
254	0x3d698add	0.057017196
255	0xbcdf4b9c	-0.027257733

layers.6.bias f4 [64]
0	0x3d5625a8	0.052282006
1	0x3d614004	0.05499269
2	0x3d343187	0.043992545
3	0xbd2feef0	-0.042952478
4	0xbc6a1d61	-0.014289231
5	0x3d7b35cb	0.061330598
6	0xbbe7a0a6	-0.0070687113
7	0x3dc42937	0.095781736
8	0x3d63475e	0.055487983
9	0x3d68d8d8	0.056847423
10	0x3b574636	0.0032848245
11	0xbd108695	-0.035284597
12	0xbd19da91	-0.037561957
13	0x3ce64482	0.028108839
14	0x3cce4023	0.025177067
15	0xbd075dec	-0.033048555
16	0xbd1f108a	-0.038834132
17	0x3d0fa274	0.035067037
18	0x3b82a87c	0.00398737
19	0x38af33e7	8.354318e-05
20	0xbc8305ae	-0.01599392
21	0xbca3eb58	-0.020009682
22	0x3d941665	0.07230834
23	0x3d2c02b8	0.04199478
24	0x3d27390a	0.04082588
25	0xbd1dae11	-0.03849608
26	0x3d295a8d	0.04134612
27	0x3bbb27dc	0.0057115387
28	0xbcb6ee9f	-0.02233058
29	0x3c805061	0.015663328
30	0x3c143ecb	0.009048174
31	0xbd600a50	-0.054697335
32	0xbc87f968	-0.016598418
33	0x3d47dbfe	0.048793785
34	0xbcd99179	-0.026558625
35	0xbcb65328	-0.022256449
36	0xbd30c949	-0.04316071
37	0xbd59d2fc	-0.053179726
38	0x3cdf4551	0.027254732
39	0xbd073783	-0.033011924
40	0xbd58e6f7	-0.05295464
41	0x3cc83d38	0.024443254
42	0xbda06c36	-0.078331396
43	0x3d080741	0.033210043
44	0x3d25bcd3	0.04046328
45	0x3cfffecd	0.031249428
46	0xbcb8d240	-0.022561193
47	0xb84fc83e	-4.9539136e-05
48	0x3d209e1b	0.03921328
49	0xbc4a7c2d	-0.012358707
50	0x3d2749f0	0.040841997
51	0x3d369678	0.044577092
52	0xbd196470	-0.0374493
53	0xbc60e8c0	-0.013727367
54	0xbd2cbf0b	-0.04217438
55	0xbce43c29	-0.027860718
56	0x3d457745	0.048209447
57	0x3ccec4ca	0.02524032
58	0x3d412017	0.047149744
59	0x3b08408e	0.002079043
60	0x3c5fd261	0.013660998
61	0x3c8aec74	0.016958453
62	0x3d6e21b9	0.05813763
63	0x3bd0c193	0.006370732

layers.8.weight f4 [64, 64, 3, 3]
0	0x3d0c352d	0.0342304
1	0x3d9aa44d	0.07550869
2	0x3d5fa40f	0.054599818
3	0x3cf83c5a	0.030302215
4	0x3d8f3bd1	0.06993831
5	0x3d19de7b	0.03756569
6	0x3cedf793	0.029048717
7	0xbad2534a	-0.0016046551
8	0x3c8716d9	0.016490387
9	0x3d8bd0d6	0.06826942
10	0x3d8190dc	0.06326458
11	0x3cdc0d68	0.026861861
12	0x3d2097a5	0.03920712
13	0xbbf7e2b1	-0.0075648655
14	0x3d69fb2a	0.057124294
15	0xbcc03057	-0.02346055
16	0x3b5994c2	0.0033200239
17	0xbc1b4b45	-0.009478395
18	0x3c97522d	0.018471802
19	0x3c03939e	0.0080308
20	0x3c089a5f	0.008337586
21	0x3c6d068f	0.014466896
22	0x3d826245	0.063664
23	0x3d232ec7	0.039839532
24	0xbcaa1269	-0.020760732
25	0x3d2823d8	0.04104981
26	0xbaa4eaae	-0.0012582147
27	0x3cfa2b06	0.030538093
28	0x3c7e9382	0.015538098
29	0x3d0d7a9d	0.03454076
30	0xbc28f3f1	-0.010312066
31	0x3a965832	0.0011470376
32	0xbcef7127	-0.02922876
33	0x3c119e18	0.00888779
34	0xbbf283db	-0.0074009723
35	0x3c3bff1a	0.011474395
36	0x3c45c457	0.012070737
37	0x3d2913a2	0.04127849
38	0x3c9f611d	0.019455487
39	0x3d3da2e0	0.046297908
40	0x3d25b7b4	0.040458396
41	0x3c077fd2	0.008270221
42	0xb889349d	-6.542469e-05
43	0x3cf9ac97	0.030477805
44	0x3ca94c1f	0.02066618
45	0x3cac7994	0.021054067
46	0x3cb7e2fd	0.022447104
47	0xbbd854cb	-0.006601905
48	0x3d313533	0.043263625
49	0x3cd54d74	0.02603791
50	0x3c8b6250	0.017014652
51	0x3d924542	0.07142116
52	0x3d47f5d7	0.048818436
53	0x3d437acf	0.04772454
54	0xbd501b0d	-0.050807048
55	0xbba0937d	-0.0049003945
56	0x3ce66d0c	0.02812817
57	0x3ce6eee9	0.028190093
58	0x3d16eefb	0.036849003
59	0x3c5f57ee	0.013631804
60	0x3d195ed6	0.03744396
61	0xbd03067a	-0.0319886
62	0xbca4ff87	-0.020141376
63	0xbc86fca5	-0.016477892
64	0xbc93943b	-0.018015018
65	0x3c5ff7b6	0.013669899
66	0x3c9285cf	0.01788607
67	0x3d38e87c	0.04514359
68	0x3ccc2166	0.02491827
69	0xbce18bbb	-0.027532449
70	0xbbdc9844	-0.0067320187
71	0x3cbe1313	0.023202455
72	0xbc731178	-0.014835708
73	0xbc8e7a60	-0.017392337
74	0xbd4e6036	-0.050384723
75	0xbca1a962	-0.019734088
76	0x3c9cd98d	0.019146705
77	0xbd0751aa	-0.033036865
78	0xbd39619b	-0.0452591
79	0x3c7324ea	0.014840344
80	0x3cf5c2ea	0.030000169
81	0xbad20775	-0.0016023951
82	0x3d01c1fa	0.03167913
83	0x3d731c4a	0.05935315
84	0xbc217db3	-0.009856629
85	0xbc2c8bd6	-0.010531386
86	0x3d540784	0.05176498
87	0x3d3e3425	0.046436448
88	0x3d786232	0.06064052
89	0x3c212ade	0.0098368805
90	0xbcc80c4d	-0.024419928
91	0xbc672978	-0.014109008
92	0xbd0a9b86	-0.033839725
93	0x3c3aba35	0.011396934
94	0xbbd42de0	-0.0064751953
95	0xbcde9314	-0.027169742
96	0x3d0cf2d4	0.034411266
97	0xbd1bc2a1	-0.03802741
98	0x3d8c5dc6	0.06853823
99	0x3d2477c8	0.040153295
100	0x3c6f2acb	0.014597605
101	0xbd3582cf	-0.044314202
102	0x3cd6e8ba	0.02623402
103	0xbc669f5e	-0.014076082
104	0x3ba8fcd1	0.005157091
105	0x3d00d5a6	0.03145375
106	0x3d1c5025	0.03816237
107	0xbc0ae246	-0.008476799
108	0xbc8fb16d	-0.017540658
109	0x3b2f8e9d	0.0026787885
110	0x3c1b4d75	0.009478916
111	0xbc91dac7	-0.017804516
112	0xbd19f262	-0.03758467
113	0xbcc18c61	-0.023626508
114	0x3b26202b	0.0025348763
115	0xbcdeacba	-0.027181972
116	0x3bacf04a	0.005277668
117	0xbc8fc61d	-0.017550522
118	0xbc39ed0f	-0.011348023
119	0xbd09114d	-0.033463765
120	0xbc88b41b	-0.016687443
121	0xbcb6888a	-0.022281904
122	0xbd2e45a3	-0.04254688
123	0xbbf547d0	-0.0074853674
124	0x3d5601a8	0.052247673
125	0xbce03435	-0.027368644
126	0x3c40149d	0.011723665
127	0x3d214772	0.039374776
128	0x3b8a43f1	0.004219525
129	0xbcc8468b	-0.0244477
130	0x3cad357a	0.021143664
131	0xbd3355d7	-0.043783035
132	0x3a41e125	0.0007395915
133	0x3ccd80f0	0.025085896
134	0xbc49e2cc	-0.012322139
135	0xbd1fd935	-0.039025504
136	0xbc82fa65	-0.015988538
137	0x3cb214eb	0.02173849
138	0x3c37f270	0.011227235
139	0xbd40b7f1	-0.04705042
140	0xbcb2b25d	-0.021813566
141	0xbc9ed7e6	-0.019390058
142	0xbd21d2fd	-0.039507855
143	0xbd20a9f1	-0.03922457
144	0xbcaea891	-0.021320613
145	0x3cac8fe7	0.021064712
146	0x3d5dfa52	0.054193802
147	0x3c44a484	0.012002114
148	0xbc658dcb	-0.014010857
149	0x3b64ebf5	0.003493068
150	0x3cf8278e	0.030292299
151	0xbc2cddd3	-0.010550934
152	0xbb915782	-0.0044354806
153	0x3cbf3001	0.02333832
154	0x3cb426ef	0.021991221
155	0x3c2d7986	0.0105880555
156	0xbd23dc6e	-0.04000514
157	0xbca018ef	-0.01954314
158	0xbd42c469	-0.047550593
159	0x3d05a814	0.032630995
160	0xbc9b8042	-0.018982057
161	0xbc99575a	-0.01871841
162	0x3c95e0e2	0.018295709
163	0x3d6468f3	0.05576415
164	0x3d21559e	0.03938829
165	0x3cfca3fa	0.030839909
166	0x3d0a8ec7	0.03382757
167	0x3d12992c	0.035790607
168	0x3d1dbcfa	0.0385103
169	0x3d5d6aca	0.05405692
170	0x3c9ce15f	0.019150434
171	0xbd1d3a91	-0.03838593
172	0x3bd2baaf	0.006430946
173	0xbaff7a5e	-0.0019491424
174	0x3d331c11	0.043727938
175	0x3c8c2d10	0.017111331
176	0xbd00b809	-0.03142551
177	0xbc4f3a19	-0.012648129
178	0x3c432988	0.011911757
179	0xbd21edd3	-0.039533447
180	0x3cc7324b	0.024315974
181	0x3caf3f4c	0.021392487
182	0xbab635a3	-0.0013901483
183	0xbb1d38d2	-0.0023990166
184	0xbd09ef63	-0.033675563
185	0x3c4ffc81	0.012694479
186	0x3c6bd965	0.014395093
187	0x3d87edbb	0.0663714
188	0x3d85059d	0.06495211
189	0x3d229692	0.039694376
190	0x3cc585ee	0.024111714
191	0xbd65a88b	-0.05606894
192	0x3ce56e04	0.028006561
193	0xbd453e19	-0.048154924
194	0x3ca4af25	0.020103047
195	0xbd5741ab	-0.05255286
196	0xbd47dff8	-0.048797578
197	0xbd126e66	-0.035749815
198	0x3cc4e1ff	0.024033545
199	0x3d4d0cf4	0.05006118
200	0x3cc6e8fc	0.024281017
201	0xbbb73d56	-0.0055920286
202	0x3d465c6f	0.048427995
203	0xbbdbda83	-0.0067093982
204	0xbc7cb81c	-0.0154247545
205	0x3cda95f1	0.026682826
206	0x3d8c4faa	0.06851132
207	0x3c9187cc	0.017764948
208	0x3d57ffe2	0.052734263
209	0x3d371003	0.044693004
210	0x3cd566ef	0.02605006
211	0x3d79f500	0.061024666
212	0xbd6a3e43	-0.057188284
213	0xbd25dc4d	-0.0404933
214	0xbbb9cdc6	-0.005670282
215	0xbcdf986d	-0.027294362
216	0x3ce31b0a	0.027722854
217	0x3be62f24	0.0070246626
218	0xbb4d4bbe	-0.0031325663
219	0x3d7652f7	0.060137715
220	0x3d1ed6ab	0.038778942
221	0x3ce149be	0.027500983
222	0x3c732deb	0.014842491
223	0xbc895c81	-0.016767742
224	0x3c62aa1a	0.013834501
225	0xbcd14874	-0.025547244
226	0xbd0cfd1d	-0.034421075
227	0x3c685228	0.014179744
228	0x3cb07649	0.021540778
229	0xbd222967	-0.039590266
230	0x3c58590b	0.013204823
231	0xbd1333e1	-0.035938147
232	0x3d061d94	0.03274305
233	0xbd13c9af	-0.036081012
234	0xbcdb4137	-0.026764495
235	0x3cbf80cd	0.023376847
236	0x3c652119	0.013984942
237	0xbd3e3d83	-0.04644538
238	0x3ce14024	0.027496405
239	0xbc8d7463	-0.017267412
240	0xbd71d8f3	-0.05904479
241	0xbc5fe0fc	-0.01366448
242	0x3c30fabe	0.010801969
243	0x3d157dd5	0.036496956
244	0x3d2126c3	0.039343607
245	0xbad28042	-0.0016059952
246	0xbbca07e3	-0.006165491
247	0xbaebe1c9	-0.0017996366
248	0x3ce449db	0.027867248
249	0xbca82071	-0.020523282
250	0xbcb889c5	-0.022526631
251	0xbd612b4c	-0.05497293
252	0x3cd85b45	0.026410708
253	0x3d74942a	0.059711613
254	0x3d1a7151	0.037705723
255	0xbce4d84f	-0.027935175

layers.8.bias f4 [64]
0	0x3ca18baf	0.019719927
1	0x3d147fb8	0.036254615
2	0x3cccf2fe	0.025018211
3	0x3cf1c6d3	0.029513752
4	0x3c351c89	0.011054167
5	0xbca17b44	-0.019712098
6	0x3c40dff0	0.011772141
7	0xbd070f0d	-0.032973338
8	0x3b1d77fd	0.0024027817
9	0xbc3703e8	-0.011170365
10	0xbd1fdc59	-0.0390285
11	0x3d103b0e	0.03521257
12	0x3c69fe2a	0.014281789
13	0x3d00abe7	0.03141394
14	0x3c2c81d4	0.010529
15	0x3c3a2186	0.011360532
16	0xbca8e905	-0.020618925
17	0xbc59ba4c	-0.013289046
18	0x3c93dec3	0.018050557
19	0xbc79ac3b	-0.015238817
20	0xbccc2142	-0.024918202
21	0x3ac9b87e	0.0015390066
22	0x3ce1b9aa	0.027554352
23	0x3cc57b31	0.024106594
24	0xbad0b112	-0.0015921912
25	0x3ccaa025	0.024734566
26	0x3d3c35ca	0.045949735
27	0x3c69c694	0.014268536
28	0xbd09f445	-0.03368022
29	0xbc35c5fe	-0.011094568
30	0xbcd2091d	-0.025639111
31	0x3c43f2a6	0.011959707
32	0x393e9bfb	0.00018177919
33	0x3c5899e8	0.013220288
34	0x3ca961bf	0.020676492
35	0x3d02c53d	0.031926382
36	0x3c029f67	0.007972575
37	0xbb62c53d	-0.0034602426
38	0x3c9dd624	0.01926715
39	0xbd3f58a3	-0.04671539
40	0x3c559584	0.013036136
41	0xbca38470	-0.019960612
42	0xbc81a9c9	-0.01582803
43	0x3c77ded4	0.01512881
44	0x3c817892	0.015804563
45	0x3d1dfdc4	0.038572088
46	0xbd1d3b8d	-0.03838687
47	0x3ce9db8e	0.028547075
48	0xbd1d90bf	-0.03846812
49	0x3ca5f40e	0.020257976
50	0xbca45bf6	-0.020063382
51	0x3c66df0a	0.014091263
52	0x3cb1cf35	0.02170525
53	0x3d50671a	0.050879575
54	0xbd049f36	-0.032378398
55	0x3d393e05	0.045225162
56	0xbc8dac70	-0.017294139
57	0x3d2e1318	0.042498678
58	0x3cdd6110	0.027023822
59	0x3b70e554	0.0036757784
60	0x3c7a9b84	0.015295867
61	0xbc999c7b	-0.018751374
62	0xbbeb57f9	-0.007182118
63	0x3cff0ca9	0.031133967

layers.10.weight f4 [64]
0	0x3f879cf5	1.0594774
1	0x3f8d3527	1.1031846
2	0x3f8cff83	1.1015476
3	0x3f8a05ce	1.0783021
4	0x3f8cb308	1.0992136
5	0x3f8ccfe7	1.1000947
6	0x3f8901eb	1.070371
7	0x3f8a8e85	1.0824744
8	0x3f8d3223	1.1030926
9	0x3f89fb05	1.077973
10	0x3f88025c	1.062572
11	0x3f8cff8a	1.1015484
12	0x3f8522d7	1.0401257
13	0x3f89230f	1.0713824
14	0x3f886b70	1.0657787
15	0x3f8ddc20	1.1082802
16	0x3f8b397d	1.0876919
17	0x3f8f3430	1.1187801
18	0x3f918def	1.137144
19	0x3f8e4373	1.1114334
20	0x3f8a6a7c	1.0813746
21	0x3f9164cd	1.1358887
22	0x3f8e5ea4	1.1122632
23	0x3f8c2a82	1.0950472
24	0x3f898a06	1.0745246
25	0x3f8c0ef6	1.0942066
26	0x3f8b09c9	1.0862361
27	0x3f8f3c9e	1.1190374
28	0x3f8d0d00	1.1019592
29	0x3f8b508d	1.0883957
30	0x3f8c8c3e	1.0980299
31	0x3f8b1e49	1.0868617
32	0x3f8deaa3	1.108723
33	0x3f8ac7a6	1.0842178
34	0x3f89392c	1.0720572
35	0x3f8aaaca	1.0833371
36	0x3f8cd183	1.1001438
37	0x3f9123b3	1.133902
38	0x3f890b94	1.0706658
39	0x3f8de83c	1.1086497
40	0x3f8b010b	1.0859693
41	0x3f8cebdb	1.1009477
42	0x3f88ef36	1.0698001
43	0x3f8c1eaa	1.0946858
44	0x3f8b603b	1.0888742
45	0x3f8f192f	1.117956
46	0x3f914157	1.1348065
47	0x3f89387b	1.0720361
48	0x3f90e76a	1.1320622
49	0x3f8d3e90	1.1034718
50	0x3f8b24c1	1.0870591
51	0x3f8c8d5e	1.0980642
52	0x3f8d060e	1.1017473
53	0x3f8a65c6	1.0812309
54	0x3f8f2220	1.1182289
55	0x3f8bfb00	1.0935974
56	0x3f8aa109	1.0830394
57	0x3f8aa311	1.0831014
58	0x3f880907	1.0627755
59	0x3f8a9c1d	1.0828892
60	0x3f8a886e	1.0822885
61	0x3f878b5d	1.0589405
62	0x3f87b35a	1.0601609
63	0x3f8501b4	1.0391145

layers.10.bias f4 [64]
0	0xb9ce7f44	-0.00039386202
1	0xbbe43feb	-0.0069656274
2	0xbcb4ac52	-0.022054825
3	0x3c745b9b	0.014914419
4	0x3c315f89	0.010826
5	0x3a99867c	0.0011713053
6	0xbca20cf4	-0.019781567
7	0x3c8d0495	0.017214099
8	0xbd03f3ad	-0.03221481
9	0xbbb028a8	-0.0053759404
10	0xbaddd18a	-0.001692341
11	0xbc9db89f	-0.019253073
12	0xbc84f290	-0.016228944
13	0xbca1c270	-0.019746035
14	0xbc1c83d0	-0.009552911
15	0xbb1f77c4	-0.002433286
16	0xbc64178c	-0.01392163
17	0xbacdfece	-0.0015716197
18	0xbc9520b5	-0.018204072
19	0xbc95aed6	-0.018271845
20	0xbb9e4d8f	-0.004831023
21	0xbb1598e2	-0.002282672
22	0x3c1bb250	0.009502962
23	0xbccfc379	-0.025361763
24	0xbc62cc0c	-0.013842594
25	0xbc2befea	-0.010494212
26	0x3c7ef694	0.0155617185
27	0xbc72075e	-0.014772264
28	0xbc96c061	-0.01840228
29	0x3c81ce78	0.015845522
30	0xbb86c0a8	-0.004112322
31	0xbce84c96	-0.028356832
32	0xba9d3fda	-0.0011997179
33	0x3c031c15	0.008002301
34	0xbcbc5fb9	-0.022994863
35	0xbc2c0491	-0.010499136
36	0xbd0a2acb	-0.033732217
37	0x3ca9da46	0.020733964
38	0xbc4caed0	-0.01249285
39	0xbb317210	-0.0027076043
40	0xbc13b865	-0.009016131
41	0xbc2f7b19	-0.010710501
42	0xbc86162a	-0.01636799
43	0xbc569052	-0.013095932
44	0xbc1436e0	-0.009046286
45	0xbc2c91b8	-0.010532789
46	0xbcdcf4b5	-0.026972154
47	0xbca7190d	-0.020397687
48	0xbd12c625	-0.035833497
49	0x3b85b3d5	0.0040802755
50	0xbbb817f3	-0.0056180893
51	0x3b886e90	0.0041635707
52	0xbcb7a700	-0.022418499
53	0x3bb33542	0.0054689953
54	0x3b076985	0.002066226
55	0xbc2a0c1a	-0.010378862
56	0xbc271d1f	-0.010199814
57	0x39838e1c	0.00025092147
58	0x3b53dc9c	0.0032327538
59	0xbcdbd880	-0.026836634
60	0xbc6252a9	-0.013813653
61	0xbbf8c099	-0.007591319
62	0xbbe7d266	-0.007074642
63	0xbb9d86df	-0.0048073377

layers.10.running_mean f4 [64]
0	0x40442f85	3.0654004
1	0x400b2927	2.1743867
2	0x3e9f64dc	0.31131637
3	0x3faa404a	1.330087
4	0x3ff43b42	1.9080584
5	0x3f81f393	1.0152458
6	0x3f91df91	1.1396352
7	0x3fb2d273	1.3970474
8	0x3e7f1e9f	0.24914025
9	0x3f918c88	1.1371012
10	0x3e7d92f2	0.24763086
11	0x3fbbe374	1.4678788
12	0x3fa373f4	1.2769761
13	0x3f94e83b	1.1633371
14	0x3f8497d9	1.035884
15	0x405e30c2	3.471726
16	0x4039708e	2.8974948
17	0x3f75fc5f	0.9608821
18	0x3fbedef3	1.4911789
19	0x405f3919	3.48786
20	0x3f575ae1	0.84123045
21	0x3ee41ec2	0.44554716
22	0x3f884eac	1.0649009
23	0x3f3c7937	0.7362246
24	0x3f4fa60a	0.8111273
25	0x3f52155b	0.82063836
26	0x3f15e0f6	0.5854639
27	0x3f12da8f	0.57364744
28	0x3e8c456a	0.2739671
29	0x3f29afe0	0.6628399
30	0x3eef46f1	0.46733811
31	0x3fee3419	1.8609649
32	0x3ef64bea	0.48104793
33	0x3fc03917	1.5017422
34	0x3f975e72	1.1825697
35	0x3f2413e9	0.6409288
36	0x3f0d7046	0.5524944
37	0x3f4ac542	0.7920724
38	0x3f2ae491	0.66755015
39	0x3fe9deb3	1.8271087
40	0x3fc32950	1.5246983
41	0x3f663cc2	0.8993646
42	0x3e9b18b3	0.30292282
43	0x3ec94414	0.39309752
44	0x3e5bbe37	0.2145928
45	0x3f96c0f8	1.1777639
46	0x3ff3fcb3	1.9061493
47	0x401d8e0f	2.4617956
48	0x3ffe4e73	1.9867691
49	0x3eacec23	0.33773908
50	0x3e15c760	0.14626837
51	0x3f0aef1e	0.54271114
52	0x3f1f140d	0.6213997
53	0x3f15678b	0.5836112
54	0x3e839112	0.25696617
55	0x3fd1e787	1.6398782
56	0x3e928d58	0.28623462
57	0x3ebf1f5c	0.37328613
58	0x3f8f73c8	1.1207209
59	0x3f5e93fe	0.8694457
60	0x3ffe151f	1.9850196
61	0x3f4bf444	0.79669595
62	0x3f0992a0	0.53739357
63	0x3ea43b57	0.32076523

layers.10.running_var f4 [64]
0	0x40dd3991	6.913277
1	0x40b1240e	5.535651
2	0x3f81cd19	1.0140716
3	0x4026b516	2.6048026
4	0x40bb3792	5.8505335
5	0x403a8ea5	2.9149563
6	0x40533d5e	3.3006206
7	0x407237f7	3.7846658
8	0x3f3b22b8	0.7309985
9	0x4022c01e	2.542976
10	0x3ef77668	0.48332524
11	0x40aa45ba	5.3210115
12	0x404b3f8b	3.1757534
13	0x40353270	2.8312035
14	0x401978ca	2.3979974
15	0x41377841	11.466859
16	0x412348e3	10.205295
17	0x40553b3b	3.3317401
18	0x407bfbc2	3.937241
19	0x4106fbf8	8.436516
20	0x401636ec	2.3471022
21	0x3faa7723	1.3317608
22	0x4037ea3d	2.8736718
23	0x3ff2971a	1.8952363
24	0x3fa758e8	1.3074007
25	0x402c135c	2.6886816
26	0x3faec26f	1.3653086
27	0x3fd06f62	1.6283991
28	0x3f02637a	0.5093304
29	0x3fe16c0c	1.7611098
30	0x3f3a01f9	0.7265926
31	0x409ba19c	4.8634777
32	0x3f9043e0	1.1270714
33	0x409876ec	4.764517
34	0x401e4607	2.4730241
35	0x3faec613	1.3654197
36	0x3fad229b	1.3526186
37	0x3fd239d9	1.6423904
38	0x3fa7b769	1.3102847
39	0x40c975d6	6.2956343
40	0x40b26ac5	5.5755334
41	0x4023b037	2.5576303
42	0x3ef43358	0.47695422
43	0x3f946565	1.1593443
44	0x3ed3e7ca	0.4138778
45	0x40a79a61	5.237595
46	0x40cdf16e	6.4357214
47	0x407031e5	3.7530453
48	0x410ae776	8.681509
49	0x3f65720a	0.89627135
50	0x3ec08636	0.37602395
51	0x3fad4f63	1.3539852
52	0x3ffb17b6	1.9616611
53	0x3fbfa4bb	1.4972147
54	0x3f2adc55	0.6674245
55	0x40558ea3	3.3368309
56	0x3f0c35ec	0.5476978
57	0x3f33fcd3	0.70307654
58	0x4020a1ae	2.5098681
59	0x40195557	2.3958337
60	0x408a640b	4.3247123
61	0x3ff53f4b	1.915994
62	0x3f97d150	1.1860752
63	0x3f23c4b4	0.6397202

layers.13.weight f4 [10, 576]
0	0xbc213b3e	-0.009840785
1	0xbd267bb1	-0.040645305
2	0x3c083f26	0.008315837
3	0xbd0730dd	-0.033005584
4	0xbc4dc4c6	-0.0125591215
5	0xbc0064d6	-0.007836541
6	0xbd907483	-0.07053473
7	0x3d314586	0.043279193
8	0x3d946b64	0.07247046
9	0xbbfba337	-0.007679369
10	0xbcae5ed8	-0.02128546
11	0xbd95b206	-0.07309346
12	0xbc152d85	-0.009105091
13	0xbcb8292a	-0.022480566
14	0xbbb2bae8	-0.00545441
15	0x3cfe610e	0.031052139
16	0x3daecd7b	0.08535286
17	0x3d62a3d1	0.05533201
18	0xbcc454ba	-0.023966182
19	0xbc4452b9	-0.011982613
20	0xbd23db9d	-0.04000436
21	0x3d4c3235	0.04985257
22	0x3c45fd8c	0.012084376
23	0xbdeb8359	-0.11499662
24	0x3cf99b9c	0.030469708
25	0xbdb7cbfb	-0.08974453
26	0xbce56ac2	-0.028005008
27	0xbc08c922	-0.008348735
28	0x3c85c263	0.016328042
29	0xbbe923c2	-0.0071148584
30	0xbca19d70	-0.019728392
31	0xbbd5d6af	-0.0065258364
32	0x3cf519f3	0.0299196
33	0xbd68093f	-0.056649443
34	0xbdbc3f3d	-0.09191749
35	0x3cfe4b90	0.03104189
36	0x3d495a75	0.049158532
37	0xbb8a6b9f	-0.004224255
38	0xbc393974	-0.011305202
39	0xb9fc142b	-0.00048080212
40	0xbd3f4aff	-0.04670238
41	0xbb63705e	-0.0034704427
42	0x3cf71d8e	0.03016546
43	0xbe018c23	-0.12651114
44	0xbdac5500	-0.0841465
45	0xbb41be9e	-0.002956308
46	0x3c0dbda6	0.008651173
47	0x3cf9b372	0.030481074
48	0xbd1f7530	-0.038930118
49	0xbc656ea8	-0.014003433
50	0xbd331e76	-0.04373022
51	0xbc6ab7e6	-0.014326071
52	0xbd0b9ae2	-0.034083255
53	0xbd928dcf	-0.07155954
54	0xbcb00440	-0.021486402
55	0xbd8334b4	-0.06406537
56	0xbd88e2d2	-0.066838875
57	0x3d0a2402	0.033725746
58	0x3d201f4b	0.039092343
59	0xbd47feeb	-0.048827093
60	0x3c8959e9	0.016766505
61	0x3d86d83f	0.065842144
62	0x3ce08553	0.027407324
63	0x3caef2e3	0.021356052
64	0xbbc8ec2f	-0.006131671
65	0xbd7a800e	-0.06115728
66	0xbd03c8b9	-0.032173846
67	0xbdb7f441	-0.089821346
68	0xbce86548	-0.028368607
69	0xbc766d0a	-0.015040645
70	0x3bc72b3c	0.006078152
71	0x3d2a3eb2	0.041563697
72	0x3cb4a8b0	0.022053093
73	0x3be52baa	0.0069937306
74	0xbd78972c	-0.060691044
75	0xbd8f43e6	-0.069953725
76	0xbc15b39d	-0.009137061
77	0xbd145308	-0.036211997
78	0xbdecc7fb	-0.11561581
79	0x3cbf5640	0.023356557
80	0x3ce7076f	0.028201787
81	0xbd3a4c27	-0.04548278
82	0x3c24f7c2	0.010068836
83	0x3da8b977	0.082384996
84	0x3c12fd13	0.00897147
85	0xbcc85b8d	-0.024457717
86	0x3c0c4f52	0.008563833
87	0x3da612f9	0.081090875
88	0x3c0e6065	0.008689974
89	0xbcf6a43a	-0.030107606
90	0x3c7014f5	0.014653434
91	0x3cdeaa4e	0.027180817
92	0xbcfb8f82	-0.030708078
93	0x3c97f093	0.018547332
94	0x3c307543	0.010770145
95	0xbd81ddfc	-0.06341168
96	0x3d43c9a7	0.047799733
97	0x3d55a7f2	0.05216212
98	0xbd84dcd7	-0.06487434
99	0xbd1565f8	-0.036474198
100	0xbc50d7a8	-0.012746729
101	0x3b6066fe	0.0034241076
102	0xbd739931	-0.059472267
103	0xbd18fdc2	-0.037351377
104	0xbd0e7983	-0.03478385
105	0xbdaa0856	-0.08302371
106	0xbdaa7af0	-0.0832423
107	0xbcb6f6ec	-0.022334538
108	0x3d13e5b2	0.036107726
109	0xbaae4c78	-0.0013297936
110	0x3c71a60b	0.01474906
111	0xbd3d391b	-0.04619704
112	0xbd4e3483	-0.050343048
113	0xbd8b067c	-0.06788346
114	0xbd20f714	-0.039298132
115	0x3cc77e88	0.024352327
116	0x3d25afd6	0.040450893
117	0xba71c2aa	-0.00092224276
118	0xbbeadd80	-0.007167518
119	0xbccbcbad	-0.024877394
120	0x3bef436d	0.007301739
121	0xbda1ae94	-0.07894626
122	0x3c6440ff	0.013931512
123	0x3d27854d	0.04089861
124	0x3d1424bd	0.03616785
125	0x3c7aab66	0.015299654
126	0x3c2c58fa	0.010519261
127	0xbc924bea	-0.017858464
128	0x3c7ce28c	0.015434872
129	0x3bed0d52	0.007234254
130	0xb9ca8e69	-0.00038634546
131	0xbd8985ba	-0.067149594
132	0x3ac2cec9	0.0014862652
133	0xbd7f47df	-0.0623244
134	0xbd1b11f1	-0.037858907
135	0xbc902cb3	-0.01759944
136	0xbd05ae24	-0.032636777
137	0x3d950ccc	0.072778314
138	0x3c00a870	0.007852659
139	0x3cfe7a19	0.03106408
140	0x3d6f276b	0.0583872
141	0xbd6f3120	-0.05839646
142	0xbdee2543	-0.11628201
143	0xbb9c34ed	-0.0047670514
144	0xbbd48afa	-0.006486294
145	0x3d447fa0	0.047973275
146	0x3d56ba5a	0.052423812
147	0x3db1161f	0.086467974
148	0x3d00d001	0.031448368
149	0x3d1ffe23	0.039060723
150	0x3d8cc2f4	0.06873122
151	0xbd2491d6	-0.040178142
152	0xbd06f212	-0.0329457
153	0xbb1800f1	-0.002319392
154	0x3d5c2c01	0.053752903
155	0xbc36eeb2	-0.011165308
156	0x3da2f7c1	0.079574116
157	0x3cb756ff	0.02238035
158	0xbdafd22f	-0.08585011
159	0x3da3fdc1	0.08007384
160	0xbd77f08e	-0.060532145
161	0xbe08d6cc	-0.13363189
162	0xbb9d3563	-0.004797624
163	0xbc3bbe7b	-0.011458988
164	0xbd11a8e7	-0.03556147
165	0xbd3a617b	-0.04550312
166	0x3c9a438b	0.018831035
167	0x3ca775dd	0.020441944
168	0xbc0c1583	-0.008550051
169	0xbd4b5968	-0.04964581
170	0xbc7afba7	-0.015318788
171	0xbcbe54b7	-0.023233755
172	0x3c808f56	0.015693348
173	0x3c80a71c	0.015704684
174	0xbb68c0d2	-0.003551532
175	0xbc0984ff	-0.008393525
176	0xbd732cfe	-0.05936908
177	0xbcb77d04	-0.02239848
178	0x3ceff6e8	0.029292539
179	0xbc26c767	-0.010179377
180	0xbd2aa80a	-0.04166416
181	0xbcdd79a3	-0.02703554
182	0x38a4eaf2	7.8638914e-05
183	0x3d3a3528	0.04546085
184	0x3c20b6fd	0.009809253
185	0xbc342b7d	-0.010996697
186	0x3cf164a4	0.029466935
187	0x3caa3876	0.020778876
188	0x3c733003	0.01484299
189	0xbd881a05	-0.06645588
190	0xbc7d6d8e	-0.015468014
191	0xbd07d28a	-0.03315977
192	0x3c59b221	0.013287098
193	0xbc35b91d	-0.011091498
194	0xbde83733	-0.113386534
195	0x3d1e0a4a	0.03858403
196	0xbd0f60d5	-0.035004456
197	0xbd9e2aec	-0.077230304
198	0x3a85eae8	0.0010217102
199	0xbd1a881e	-0.037727468
200	0x3d63e6cc	0.055640027
201	0x3db86f41	0.09005595
202	0xbb410563	-0.0029452674
203	0xbcb7ae39	-0.022421943
204	0x3d986a1b	0.07442113
205	0xbd38b318	-0.045092672
206	0xbda65018	-0.081207454
207	0xbd9cd7cd	-0.07658348
208	0xbd00151f	-0.031270143
209	0x3d462fa7	0.04838529
210	0xbd8ba065	-0.06817702
211	0x3b729a3f	0.0037018207
212	0x3d4f866e	0.05066531
213	0xbd0a8872	-0.03382153
214	0x3c41507b	0.011798973
215	0xbc38ad22	-0.011271747
216	0x3c2f45b1	0.010697768
217	0xbd203fd5	-0.039123375
218	0xbd69b999	-0.057061765
219	0x3d5a98f9	0.053368542
220	0xbc603a9a	-0.013685847
221	0xbbfd7400	-0.0077347755
222	0x3cd68a39	0.026188957
223	0xbd11beac	-0.03558223
224	0xbdaa25ac	-0.083079666
225	0xbd468b6a	-0.0484728
226	0x3c38ab75	0.011271347
227	0x3d67ff8f	0.056640204
228	0x3b1a12ad	0.0023509667
229	0xbd806f23	-0.06271198
230	0xbcf3438e	-0.029695299
231	0x3b94e168	0.004543472
232	0xbd4748fd	-0.04865359
233	0xbdc1fac3	-0.09471657
234	0x3d4e1ead	0.050322223
235	0xbc29b650	-0.010358408
236	0xbd77aa29	-0.06046501
237	0xbd8f6a04	-0.07002643
238	0x3d306bef	0.043071683
239	0x3d5cf3db	0.053943496
240	0xbe2488ac	-0.16067761
241	0xbc1d7dff	-0.009612559
242	0xbce650a9	-0.028114634
243	0x3d5297d7	0.051414337
244	0xbd1d064e	-0.03833609
245	0x3b2c9d78	0.0026338976
246	0xbd43b471	-0.047779504
247	0x3be470c6	0.0069714515
248	0xbd390287	-0.045168426
249	0xbd363979	-0.044488404
250	0xbbc52164	-0.0060159434
251	0x3d1a7103	0.037705433
252	0xbc68a449	-0.014199325
253	0xbdbc02bf	-0.09180211
254	0xbd0e0c85	-0.03467991
255	0xbd1687ba	-0.036750533

layers.13.bias f4 [10]
0	0x3d41b5ec	0.047292635
1	0x3d36ad32	0.044598766
2	0x3a43e9cf	0.00074735
3	0xbcb18c00	-0.021673203
4	0x3d0f930e	0.03505235
5	0x3ab6cffc	0.0013947482
6	0x3bdf6081	0.006816924
7	0xbca9e1ef	-0.020737616
8	0x3b9c46e3	0.0047691925
9	0x3ca8a3b1	0.020585867
